toy/model_weights/scorenet_20_0.01_8.pth (torch, 71414 bytes, 6 tensors)

fc1.weight f4 [128, 2]
0	0x3f0058be	0.5013541
1	0x3f150931	0.5821715
2	0xbe3f69f7	-0.18692766
3	0x3f289e43	0.6586649
4	0xbe054425	-0.13014276
5	0x3d9f5dc5	0.07781557
6	0xbeb2081a	-0.34771806
7	0x3ecc0933	0.39850768
8	0x3f0c19a6	0.54726636
9	0xbf06e667	-0.52695316
10	0x3f202cb8	0.62568235
11	0x3de5b053	0.11215272
12	0x3ef5daaa	0.4801839
13	0x3d9efab6	0.07762663
14	0x3ea61a16	0.32441777
15	0xbde93a6d	-0.11388097
16	0x3f061a10	0.5238352
17	0x3d63f96f	0.0556578
18	0xbe8c061d	-0.27348414
19	0x3e3923a2	0.18079999
20	0xbe9b0494	-0.3027693
21	0xbd904427	-0.07044249
22	0xbe953f1b	-0.29149708
23	0x3ee38a53	0.4444147
24	0xbf13e760	-0.57774925
25	0xbe8fa683	-0.28056726
26	0xbe56b352	-0.20966843
27	0xbee0f86c	-0.4393953
28	0x3d26b9ce	0.04070454
29	0xbf3d79bd	-0.7401388
30	0x3f200ff6	0.62524354
31	0xbf24f56a	-0.6443697
32	0x3ee977ff	0.45599362
33	0x3d543ffe	0.05181884
34	0xbe7f9168	-0.24957812
35	0x3ec4c849	0.38434055
36	0x3d8553bc	0.06510112
37	0x3f01d0a4	0.50708985
38	0x3d7f22af	0.062288936
39	0xbe3f90bc	-0.18707556
40	0x3dd8cbc8	0.10585743
41	0xbe803e91	-0.25047734
42	0x3e943d12	0.28952843
43	0x3f22559d	0.63411885
44	0x3ec99993	0.3937498
45	0xbe9517d7	-0.2911975
46	0x3ecf739d	0.40517893
47	0x3e0c462a	0.1369864
48	0x3ea9e703	0.3318406
49	0xbeed7ec1	-0.46385768
50	0xbf4eee5c	-0.8083246
51	0xbe5a0b1c	-0.212933
52	0xbf11f55b	-0.5701501
53	0x3f0d1d19	0.55122524
54	0x3e2fabb8	0.17155349
55	0x3e87dd46	0.26536006
56	0x3e2b51ec	0.1673047
57	0xbd0ddf6d	-0.034636904
58	0x3f0a8805	0.541138
59	0xbefadd88	-0.4899714
60	0x3d85f47f	0.065407746
61	0xbee3b778	-0.44475913
62	0x3e52f9f3	0.2060316
63	0xbe28f0c3	-0.16498093
64	0x3e241417	0.16023289
65	0xbe0a7d2c	-0.13524312
66	0x3f0f93ef	0.56085104
67	0xbec68267	-0.38771364
68	0xbed048cb	-0.40680537
69	0xbecd8772	-0.401424
70	0x3f0ebac9	0.5575376
71	0x3e559c02	0.20860294
72	0x3f266b86	0.6500782
73	0xbf15abad	-0.5846508
74	0xbf3592ec	-0.7092731
75	0xbf064db2	-0.52462304
76	0xbeea277f	-0.45733258
77	0x3e8e930d	0.27846566
78	0x3e5f4f24	0.21807534
79	0x3f19b2eb	0.6003863
80	0xbeb62dae	-0.35581726
81	0xbef219db	-0.4728535
82	0x3e92eb78	0.28695273
83	0xbe88d96d	-0.26728383
84	0x3ec48cff	0.3838882
85	0xbe39f1be	-0.18158624
86	0x3eb8a383	0.3606225
87	0xbf1f2e19	-0.62179714
88	0xbec5c8b3	-0.38629684
89	0x3e3fdf7e	0.18737599
90	0x3df33038	0.11874431
91	0xbe07b12d	-0.13251181
92	0x3ece0d14	0.40244353
93	0x3ee43b99	0.4457672
94	0xbf111e63	-0.5668699
95	0xbea76ee6	-0.32701796
96	0x3f1b2640	0.6060524
97	0xbe7727f7	-0.24136339
98	0xbe609892	-0.21933201
99	0xbf307288	-0.6892476
100	0xbeda3301	-0.42617038
101	0x3e2cea80	0.1688633
102	0xbdebddaa	-0.115168884
103	0xbf0da055	-0.5532277
104	0xbc976e2a	-0.018485148
105	0xbf0a6863	-0.5406553
106	0xbf1fe3a5	-0.62456733
107	0xbea14e66	-0.31505126
108	0xbf35d29e	-0.710245
109	0xbebb0018	-0.3652351
110	0x3f2ea483	0.68219775
111	0x3ddf71af	0.10910355
112	0x3e5d5f34	0.21618348
113	0xbf325981	-0.6966782
114	0xbeefbf75	-0.46825758
115	0xbe5de251	-0.21668364
116	0x3ddfefec	0.10934433
117	0xbf1eb181	-0.619896
118	0xbe944693	-0.28960094
119	0xbedb0de4	-0.42784035
120	0x3c8bb5cc	0.017054461
121	0xbe2d6d60	-0.16936255
122	0xbc9457de	-0.018108305
123	0xbeed68de	-0.4636907
124	0xbef562ed	-0.47927037
125	0xbec39b88	-0.38204598
126	0xbe51f541	-0.20503713
127	0xbf1fae2e	-0.6237515
128	0x3f1271ae	0.5720471
129	0xbe1aac70	-0.15104842
130	0x3f13ebce	0.57781684
131	0x3e32cb5a	0.17460385
132	0xbf1cdd46	-0.61275136
133	0x3ed2f723	0.41204175
134	0xbe169c15	-0.14707978
135	0xbe81f96b	-0.25385603
136	0xbf144011	-0.5791026
137	0xbf312c99	-0.69208676
138	0x3e5ba563	0.21449809
139	0xbe05597c	-0.13022417
140	0x3e8bcc08	0.273041
141	0xbf296ec9	-0.6618467
142	0x3f0ea207	0.55715984
143	0xbf122faa	-0.5710398
144	0xbdc22ab4	-0.09480801
145	0x3d9e7b97	0.07738417
146	0x3e9a8d23	0.30185804
147	0x3f08f666	0.53500974
148	0x3f1c009d	0.60938436
149	0xbf08a00b	-0.53369206
150	0x3e0df946	0.13864622
151	0xbe7c351b	-0.24629633
152	0xbd8c1ea7	-0.06841784
153	0xbf1d2ca4	-0.6139624
154	0x3f1fc4e1	0.6240979
155	0xbf084950	-0.53236866
156	0x3eae3843	0.340273
157	0x3e6aba50	0.22922635
158	0x3e466933	0.19376068
159	0xbecad2ba	-0.39613897
160	0x3f18d7fb	0.5970456
161	0x3dcea379	0.10089774
162	0x3d76f24e	0.060289674
163	0xbf1b04d9	-0.6055427
164	0x3e27ba9a	0.16379777
165	0xbe1135eb	-0.14180724
166	0xbea12297	-0.31471702
167	0x3f0dc30b	0.55375737
168	0x3e292c8a	0.16520897
169	0xbeb9a7a9	-0.36260727
170	0xbeae8f4f	-0.3409371
171	0x3926b684	0.00015898986
172	0x3eb83ed3	0.3598543
173	0xbe1df3db	-0.15425055
174	0xbecb0c24	-0.396577
175	0xbe555878	-0.2083453
176	0xbf25ccfc	-0.64765906
177	0x3e688650	0.22707486
178	0x3f0942dc	0.53617644
179	0xbf3fadc4	-0.7487452
180	0x3de33387	0.110938124
181	0x3e95a54a	0.29227668
182	0x3dc5c93c	0.09657523
183	0xbdeb818d	-0.11499319
184	0x3ebc9c9a	0.36838228
185	0x3ebb283f	0.36554143
186	0x3e6d3223	0.23163657
187	0xbe0d462e	-0.13796303
188	0xbde6734d	-0.11252461
189	0x3d29f71c	0.041495427
190	0xbd8b50cf	-0.068025224
191	0xbe0b97b5	-0.1363209
192	0x3ed800a1	0.4218798
193	0x3f122bf7	0.57098335
194	0xbce9d704	-0.02854491
195	0xbdebf69e	-0.11521648
196	0x3ca6817c	0.020325415
197	0xbce88450	-0.028383404
198	0x3e1abf51	0.15112044
199	0x3e256caa	0.16154733
200	0xbf41b553	-0.75667304
201	0xbe3ac30f	-0.18238471
202	0x3f10b527	0.56526417
203	0x3e7ef9b5	0.24899943
204	0xbcc830b1	-0.02443728
205	0xbec9c759	-0.39409903
206	0xbebd300a	-0.36950713
207	0xbf267814	-0.65026975
208	0xbe78c703	-0.24294667
209	0x3e504aa8	0.20340979
210	0x3ed632ce	0.41835636
211	0x3e992950	0.2991433
212	0xbf311b25	-0.69182044
213	0xbebd694e	-0.36994404
214	0xbe037140	-0.1283617
215	0x3f26e4b9	0.65192753
216	0x3d928053	0.07153382
217	0xbdadeb2a	-0.084921196
218	0x3e947f38	0.2900331
219	0xbe774ea8	-0.24151099
220	0xbef8c0a3	-0.4858447
221	0x3ef42d8f	0.47691008
222	0xbeba42f2	-0.363792
223	0xbe1b4b85	-0.15165527
224	0xbf58e433	-0.84723204
225	0x3f1abe95	0.60447055
226	0x3f0af0b8	0.5427356
227	0x3e79fcac	0.24412793
228	0xbee2344e	-0.4418053
229	0xbf336827	-0.700808
230	0xbf2658cd	-0.6497925
231	0x3eeda709	0.464165
232	0x3ea8b0d7	0.32947418
233	0x3f1931ff	0.59841913
234	0x3ebc9134	0.3682953
235	0x3e111d9a	0.14171448
236	0xbb821bc0	-0.003970593
237	0xbf10d92a	-0.56581366
238	0xbf12be13	-0.5732128
239	0xbf301afd	-0.6879118
240	0x3e6d0384	0.23145872
241	0xbe9c3cae	-0.30515045
242	0xbdef478c	-0.11683568
243	0xbec905b4	-0.39262164
244	0xbdd38561	-0.103281744
245	0xbef64264	-0.48097527
246	0xbf12e97c	-0.5738752
247	0x3e8bfeb3	0.27342758
248	0xbe533548	-0.20625794
249	0x3ecc3587	0.39884588
250	0xbe696f91	-0.22796465
251	0xbf0bf870	-0.5467596
252	0xbdfa5d04	-0.122247726
253	0xbebf16a2	-0.37321955
254	0xbe285475	-0.16438468
255	0xbf38e33c	-0.7222173

fc1.bias f4 [128]
0	0x3e94747f	0.2899513
1	0xbf22866e	-0.63486373
2	0x3ee61e8b	0.44945177
3	0x3eb4a006	0.35278338
4	0x3f0d5bdc	0.5521829
5	0xbf2a42ff	-0.6650848
6	0x3f136335	0.5757325
7	0xbeec4557	-0.46146652
8	0x3e36abd6	0.17838988
9	0x3f49ec5c	0.7887628
10	0xbea54c47	-0.32284757
11	0xbc870e5b	-0.016486337
12	0xbed21b11	-0.41036275
13	0xbf25d099	-0.6477142
14	0x3e376e13	0.17913084
15	0xbf6f528d	-0.9348534
16	0x3e9b729f	0.30360886
17	0x3f198e45	0.5998271
18	0x3f1de01c	0.6167009
19	0xbe477f69	-0.19482197
20	0xbf24b168	-0.643332
21	0x3dc0cecd	0.09414444
22	0x3ef6527a	0.481098
23	0xbf42c6d6	-0.7608465
24	0xbe72fe73	-0.23729877
25	0xbf02175e	-0.50816905
26	0xbe50ce58	-0.20391214
27	0xbecf1415	-0.4044501
28	0xbe83d475	-0.2574803
29	0xbe3c0f29	-0.18365158
30	0xbf50d57b	-0.81575745
31	0x3f3e06eb	0.74229306
32	0x3f36b2e4	0.71366715
33	0xbe29feb9	-0.16601075
34	0xbd79eaf7	-0.061015096
35	0xbf0fefe3	-0.56225413
36	0xbf5b919a	-0.85769045
37	0xbf58c93d	-0.84682065
38	0x3ea1a61f	0.31572053
39	0xbefd18b3	-0.49432907
40	0xbf12d12d	-0.57350427
41	0x3db02085	0.085999526
42	0xbe64a5b4	-0.22328836
43	0xbe8bd1fa	-0.27308637
44	0xbd8c3845	-0.0684667
45	0xbd8c3599	-0.068461604
46	0xbe900b11	-0.28133443
47	0xbf4d52f3	-0.80204695
48	0xbf227e96	-0.63474405
49	0x3f18d312	0.5969707
50	0xbe9fd18f	-0.31214568
51	0x3e47851e	0.19484374
52	0xbf1802b2	-0.5937911
53	0xbdbf945f	-0.093544714
54	0x3f523243	0.82107943
55	0x3e938c01	0.28817752
56	0xbf4ceb3c	-0.8004644
57	0x3eab8d64	0.3350631
58	0x3f318037	0.69336265
59	0x3e9f0927	0.3106167
60	0x3f26ac35	0.6510652
61	0x3f3da748	0.74083376
62	0xbe14b4d4	-0.14522105
63	0xbd897642	-0.06712009
64	0xbf197d92	-0.5995723
65	0xbe49f8ed	-0.19723864
66	0x3ef0f1a9	0.47059372
67	0x3ee59ee5	0.4484779
68	0xbf22b780	-0.6356125
69	0xbf2477d6	-0.64245355
70	0xbf50e01c	-0.81591964
71	0xbf52699d	-0.82192403
72	0xbef450c9	-0.47717884
73	0xbe8eecbf	-0.27914998
74	0x3f0e2a98	0.5553374
75	0x3e351d45	0.17686947
76	0xbf568096	-0.83789957
77	0xbf209095	-0.62720615
78	0x3ea34620	0.3188944
79	0xbf3ef168	-0.74587107
80	0xbe35f62e	-0.17769691
81	0x3e84543e	0.25845522
82	0xbe8e8ed6	-0.2784335
83	0xbe45148c	-0.1924612
84	0xbd4623e6	-0.04837408
85	0xbe739a28	-0.23789275
86	0xbec27d69	-0.37986305
87	0xbf56d3e8	-0.83917093
88	0xbf1c9635	-0.611667
89	0xbf2e3313	-0.68046683
90	0x3f68a346	0.90874135
91	0xbe79c4ce	-0.24391481
92	0xbf090fe0	-0.5353985
93	0x3e7acc4c	0.24491996
94	0x3ea2599b	0.3170899
95	0x3f0bcbca	0.5460783
96	0x3ee49186	0.44642276
97	0x3f04567c	0.51694465
98	0xbf072c68	-0.52802134
99	0x3d22c675	0.039740045
100	0x3efc7811	0.49310353
101	0xbd9560db	-0.07293864
102	0xbf0eba92	-0.55753434
103	0x3f14b7f7	0.5809321
104	0xbe81afe5	-0.2532951
105	0xbefcda2e	-0.49385208
106	0xbf3232ae	-0.6960858
107	0x3d82aa13	0.06380095
108	0x3f0cec17	0.55047745
109	0x3da9197c	0.08256814
110	0x3d898c5e	0.06716226
111	0xbf83bede	-1.0292623
112	0xbf601b8f	-0.8754205
113	0xbe7c8e2b	-0.24663608
114	0x3f015388	0.50518084
115	0x3e88f829	0.2675183
116	0xbeeeb5af	-0.4662299
117	0xbe68ea54	-0.22745639
118	0xbf1a1b06	-0.60197484
119	0xbeb488ff	-0.3526077
120	0x3e512985	0.20425995
121	0x3f0d55b2	0.55208886
122	0x3f2b4e83	0.66916674
123	0xbf5b3aef	-0.856368
124	0x3eda4405	0.4263002
125	0xbf31092e	-0.6915463
126	0x3eb3343b	0.35000786
127	0x3f02af61	0.51048857

fc2.weight f4 [128, 128]
0	0xbbf00d40	-0.0073257983
1	0x3d5e9faf	0.054351505
2	0xbca74569	-0.02041884
3	0xbcc3903d	-0.02387249
4	0x3d68a2a4	0.05679573
5	0xbcc89832	-0.024486635
6	0xbcbd0548	-0.023073807
7	0xbd424dc6	-0.04743745
8	0x3d6590dd	0.056046356
9	0x3da03103	0.07821848
10	0x3c50e0b5	0.012748887
11	0xbd63dbe1	-0.055629615
12	0xbda2d209	-0.07950217
13	0xbd281450	-0.041034997
14	0x3ca93736	0.02065621
15	0xbd6cbf09	-0.057799373
16	0xbcf6a2eb	-0.030106982
17	0x3d80ec7f	0.06295108
18	0xbb29d79b	-0.0025915864
19	0x3d514e8c	0.0511003
20	0x3b64322e	0.0034819948
21	0xbdb99698	-0.090619266
22	0xbd89d044	-0.06729177
23	0xbd614455	-0.054996807
24	0xbd33e42c	-0.043918774
25	0x3c2be79e	0.010492234
26	0xbd2f337f	-0.04277372
27	0xbd4702e0	-0.048586726
28	0x3da5f21a	0.08102818
29	0x3cdb93c0	0.026803851
30	0xbc1bcca6	-0.009509241
31	0x3be4ebcd	0.0069861175
32	0x3c477c01	0.012175561
33	0x3cc11ea4	0.02357418
34	0xbd767dcc	-0.060178563
35	0xbd818476	-0.06324093
36	0xbca8b87d	-0.020595783
37	0xbd73d99e	-0.059533708
38	0xbd606f73	-0.054793786
39	0x3d20cc45	0.039257307
40	0x3d27b9f1	0.040948812
41	0x3cfb3b3f	0.0306679
42	0xbcad4c51	-0.021154555
43	0xbdd4da20	-0.103931665
44	0xbccfd182	-0.025368456
45	0x3d8d6cee	0.06905542
46	0x3d04f5ce	0.03246098
47	0xbd1be9ad	-0.038064647
48	0xbd4fbb8d	-0.05071597
49	0x3d9752a7	0.073888116
50	0xbdaf11c5	-0.08548311
51	0x3d7316ea	0.059348024
52	0xbda3642c	-0.07978091
53	0x3c40ff5f	0.011779635
54	0x3cc916f4	0.024547078
55	0x3ba68b0e	0.0050824946
56	0xbdfc7779	-0.12327475
57	0x3db444d5	0.08802191
58	0x3c8cf887	0.01720835
59	0x3da73de9	0.08166105
60	0x3e03e1ed	0.12879153
61	0xbc67d3e0	-0.014149636
62	0xbd875c06	-0.06609349
63	0x3d91ed50	0.07125342
64	0x3d6d9078	0.057999104
65	0xbd946371	-0.072455294
66	0xba579ee3	-0.0008225275
67	0xbd8a4eff	-0.067533486
68	0xbdba06db	-0.09083339
69	0x3cb4cc25	0.02207
70	0xbd78b8fa	-0.060723282
71	0xba97ff49	-0.0011596467
72	0x3cf1007f	0.029419182
73	0x3d9178db	0.071031295
74	0x3c8040b5	0.015655855
75	0xbbe227fe	-0.00690174
76	0xbd862ae8	-0.065511525
77	0x3bccb1e9	0.0062467945
78	0x3cc79418	0.024362609
79	0xbdb467c2	-0.08808853
80	0x3ce9c502	0.028536323
81	0xbd3d645c	-0.04623829
82	0xbd67dff6	-0.05661007
83	0xbd88b8be	-0.06675862
84	0x3dc37d12	0.0954534
85	0x3d7c53db	0.06160341
86	0x3d8e9453	0.06961884
87	0xbbaac482	-0.005211414
88	0xb9bbd378	-0.00035824976
89	0xbd33a6c1	-0.0438602
90	0xbd50ba45	-0.05095889
91	0x3db15156	0.08658092
92	0xbd68ca97	-0.05683383
93	0xbd20543e	-0.03914284
94	0x3c99eb31	0.018788906
95	0x3d345979	0.04403064
96	0x3d158928	0.036507756
97	0x3a8afa16	0.0010603096
98	0x3c87c839	0.016574966
99	0x3b934259	0.0044939932
100	0xbc6dd60a	-0.014516363
101	0xbd817678	-0.06321424
102	0x3b594c34	0.0033156993
103	0x3c6b570b	0.014364014
104	0x3ddab612	0.106792584
105	0x3d9d3cb2	0.07677592
106	0xba173e13	-0.00057694427
107	0x3c416eb9	0.0118061835
108	0x3daa66b6	0.08320372
109	0x3ce1eb1b	0.027577927
110	0xbc133abd	-0.008986172
111	0xbd883e1e	-0.06652473
112	0xbdcc6bdd	-0.09981511
113	0x3d9aac8f	0.07552444
114	0x3b53f287	0.0032340602
115	0xbd2368e7	-0.039894965
116	0xbd069d99	-0.03286514
117	0xbd50bc48	-0.05096081
118	0xbd34e10b	-0.04415993
119	0x3d6c9da6	0.057767533
120	0x3dd6f6ad	0.104962684
121	0x3d7c00e6	0.061524294
122	0xbd198b25	-0.037486214
123	0xbdfc6067	-0.12323075
124	0xbca5cfd5	-0.020240704
125	0xbd71f8d2	-0.059075184
126	0x3c913f2c	0.017730318
127	0xbd73014b	-0.059327405
128	0x3cb7d28a	0.02243926
129	0xbd90dbd2	-0.070731774
130	0xbd74bf2b	-0.059752624
131	0xbd93487c	-0.0719156
132	0x3d8c0a28	0.06837875
133	0xbdade6c9	-0.084912844
134	0x3d7c89ed	0.061654974
135	0x3c17249c	0.009225037
136	0xbc72bffb	-0.0148162795
137	0x3da81426	0.08206968
138	0x3d9bc400	0.076057434
139	0x3d5145d0	0.05109197
140	0xbd18d957	-0.037316646
141	0xbde95a39	-0.11394162
142	0x3cea7d40	0.028624177
143	0x3c2d537f	0.010578989
144	0x3c6d1ede	0.014472691
145	0x3c159d5d	0.009131757
146	0x3c8a2c45	0.016866812
147	0xbd8dccd2	-0.06923832
148	0xbcf21a25	-0.029553482
149	0x3da14009	0.07873542
150	0x3d4e7be8	0.050411135
151	0x3ba09a0e	0.0049011772
152	0xbdb351dd	-0.087558486
153	0xbe4f5093	-0.2024558
154	0xbd87f29f	-0.06638073
155	0x3d99f8a6	0.07518129
156	0xbd2a5b52	-0.041590996
157	0xbc387ba9	-0.011259952
158	0xbd2de711	-0.04245669
159	0x3b2b81bc	0.0026169857
160	0x3d96034f	0.0732485
161	0x3b8cc40e	0.0042958325
162	0x3cc8ecf7	0.024527056
163	0x3d8687a0	0.06568837
164	0x3d8b3e8f	0.067990415
165	0xbdfd4548	-0.1236673
166	0xbc37661a	-0.0111937765
167	0x3d21f2f3	0.039538335
168	0xbd67aa48	-0.056558877
169	0x3d1cfe94	0.038328722
170	0xbc6f13ca	-0.01459212
171	0xbd854fb0	-0.0650934
172	0x3d43342b	0.047657173
173	0x3b0604ec	0.002044971
174	0x3d15fef2	0.036620088
175	0x39eddef9	0.0004537029
176	0x3d82000b	0.063476644
177	0x3d7196e7	0.058981802
178	0x3c808541	0.01568854
179	0xbdadbbfe	-0.08483122
180	0xbd9dfec2	-0.07714607
181	0xbe2384c7	-0.1596862
182	0xbe2980e6	-0.16553077
183	0xbd4d8520	-0.050175786
184	0xbdaf62a5	-0.08563737
185	0xbd9c089d	-0.0761883
186	0xbd7c1b99	-0.061549757
187	0xbdc20a64	-0.09474638
188	0xbd79f69d	-0.061026204
189	0x3d180807	0.03711703
190	0x3cfa9e50	0.030593067
191	0xbd83b564	-0.06431082
192	0xbcbf7a84	-0.02337385
193	0x3d2fcce1	0.042919997
194	0xbd352d19	-0.04423246
195	0x3bc93306	0.0061401157
196	0x3c7e7cb7	0.015532664
197	0xbd8cecb8	-0.06881088
198	0x3c21baf9	0.009871238
199	0x3d9dde05	0.077083625
200	0x3bd3c07d	0.0064621554
201	0x3ca4a8be	0.020099994
202	0xbd741eab	-0.05959956
203	0xbc8e0dcb	-0.017340561
204	0xbca4684f	-0.02006927
205	0x3c9fb243	0.019494181
206	0x3cffafc1	0.031211736
207	0x3d8fb2a6	0.07016496
208	0xbd941c21	-0.07231928
209	0xbbafcc1c	-0.005364908
210	0xbd292720	-0.041297078
211	0xbd974629	-0.07386429
212	0xbca3bfa3	-0.01998884
213	0xbbf1bc0c	-0.0073771533
214	0x3d902a56	0.07039325
215	0xba16af0d	-0.00057481305
216	0xbd999e22	-0.075008646
217	0x3d1dd7dc	0.038535938
218	0xbdb7d6c9	-0.08976514
219	0xbd4583e9	-0.048221502
220	0xbc8bc33a	-0.017060865
221	0xbd9834e3	-0.07431962
222	0xbd4223f6	-0.047397576
223	0x3cc4e2be	0.0240339
224	0x3d7e13af	0.06203049
225	0x3dcc2d5f	0.09969591
226	0x3d122b9b	0.035686117
227	0xbd4ae5fd	-0.04953574
228	0xbe4770e4	-0.19476658
229	0x3d9485fa	0.072521165
230	0x3c6d191c	0.014471319
231	0xbd0c5c12	-0.034267493
232	0x3bded385	0.0068001174
233	0xbd931819	-0.07182331
234	0xbe2a90c7	-0.1665679
235	0x3da46a7e	0.08028124
236	0xbd19251a	-0.0373889
237	0xbc39188a	-0.0112973545
238	0xbd9c9d48	-0.076471865
239	0xbac6c3ee	-0.0015164593
240	0xbc1b6a9b	-0.009485866
241	0xbd6d9e2d	-0.058012176
242	0xbd4eef2d	-0.050521065
243	0x3d061395	0.03273352
244	0xbdb6c06a	-0.08923419
245	0x3cdbca45	0.026829848
246	0xbd9c03db	-0.07617923
247	0xbdad7e71	-0.084713824
248	0x3cc98bb7	0.024602754
249	0x3d975d88	0.073908865
250	0xbca56c66	-0.02019329
251	0xbd794ca9	-0.060864124
252	0xbdaffa5a	-0.08592673
253	0xbdc7bd73	-0.097529314
254	0xbd97e8c2	-0.07417442
255	0xbd139342	-0.036029108

fc2.bias f4 [128]
0	0xbc78776d	-0.015165192
1	0x3d85ea27	0.06538802
2	0x3d3c94a3	0.04604019
3	0xbc654620	-0.01399377
4	0x3e0f3d79	0.13988294
5	0x3d90a57e	0.07062815
6	0xbdf4b431	-0.11948431
7	0x3dad4b73	0.084616564
8	0xbd5f3e73	-0.054502916
9	0x3a6a9b96	0.0008949576
10	0xbe2c217a	-0.16809645
11	0x3daf92d5	0.08572928
12	0xbb5ade38	-0.0033396613
13	0xbd60e65b	-0.054907184
14	0x3dec5a89	0.11540706
15	0xbbf4f820	-0.007475868
16	0x3d62b90f	0.055352267
17	0xbe0a2316	-0.13489947
18	0x3c712c1a	0.014719987
19	0x3da7a268	0.081852734
20	0x3d87da08	0.06633383
21	0x3d8a9117	0.06765955
22	0xbd31051d	-0.043217767
23	0x3e114845	0.14187725
24	0x3ddfb105	0.10922436
25	0x3d3f3715	0.04668339
26	0xbd79e785	-0.06101181
27	0xbde7fc65	-0.11327437
28	0xbbac3d56	-0.0052563353
29	0x3da75aa1	0.08171583
30	0x3d7c398b	0.061578315
31	0x3e4e386a	0.20138708
32	0x3deebaf3	0.116567515
33	0xbdb09710	-0.08622563
34	0xbb1e715d	-0.0024176456
35	0xbbe96df1	-0.0071237017
36	0xbd46af8d	-0.048507262
37	0x3d69d023	0.05708326
38	0x3e06a0a7	0.13147222
39	0x39137454	0.00014062348
40	0xbd71f5dd	-0.059072364
41	0xbdcde774	-0.10053912
42	0x3dbb90d8	0.09158486
43	0x3e36e59e	0.1786103
44	0x3e2a7948	0.16647828
45	0x3e097a45	0.13425548
46	0x3d04f5cd	0.032460976
47	0xbd8f0d57	-0.06984966
48	0x3d82bc56	0.063835785
49	0xbd2d0c26	-0.042247914
50	0xbcdd6ca3	-0.027029341
51	0x3de9fe75	0.11425487
52	0x3d065941	0.032799963
53	0xbd0f8bfe	-0.035045616
54	0xbc812594	-0.015764989
55	0xbd8ea21a	-0.06964512
56	0x3dda5cdf	0.10662245
57	0x3da22b8c	0.07918462
58	0x3dd1658b	0.10224446
59	0x3dbabbe6	0.0911787
60	0xbcc09911	-0.023510488
61	0x3c8e7ef6	0.017394524
62	0xbd7a5433	-0.061115455
63	0xbdd42369	-0.103583165
64	0xbc7c258f	-0.015389814
65	0x3d9a6ac2	0.07539894
66	0xbcc5c1ea	-0.024140317
67	0xbc6fe651	-0.014642314
68	0x3de2f671	0.11082161
69	0x3e06d4fd	0.13167186
70	0x3db5da3c	0.088795155
71	0x3c5a429c	0.013321545
72	0x3d101548	0.035176545
73	0xbdebd21b	-0.11514684
74	0x3e32c0fa	0.17456427
75	0xbd0fb597	-0.035085287
76	0xbd5e5730	-0.054282367
77	0x3d7cb8fa	0.061699845
78	0x3e168295	0.1469825
79	0xbd9c79a2	-0.07640387
80	0x3bf48451	0.0074620624
81	0xbcd23060	-0.025657833
82	0xbcd35479	-0.025797116
83	0x3bf6e261	0.0075343107
84	0x3de6436c	0.112433285
85	0x3d8dad02	0.06917764
86	0x3d117bcf	0.035518464
87	0xbd1ed771	-0.03877968
88	0xbd96e5a1	-0.07368017
89	0xbcbd7c00	-0.023130417
90	0x3cd68c0b	0.026189825
91	0x3d804868	0.062638104
92	0x3e6eb101	0.23309709
93	0x3ddcf3b6	0.10788672
94	0xbdc707e9	-0.097183056
95	0x3db3e5eb	0.08784088
96	0x3d9df41a	0.07712574
97	0xbe11eab6	-0.14249691
98	0x3b769824	0.0037627304
99	0x3d47fb67	0.04882374
100	0xbd16c22e	-0.036806278
101	0xbd10056d	-0.035161424
102	0xbdb3a6d5	-0.08772055
103	0xbcf7c29d	-0.030244166
104	0xbd870b5d	-0.06593964
105	0x3cfd66eb	0.030932864
106	0x3c806175	0.015671471
107	0xbd89c1e4	-0.06726435
108	0xbdd642b9	-0.10461945
109	0xbc9bb834	-0.019008733
110	0x3e21c5af	0.15798067
111	0x3c87fbec	0.016599618
112	0xbcb9bff9	-0.022674548
113	0xbcd98710	-0.02655366
114	0x3dafe651	0.08588851
115	0x3db835b7	0.0899462
116	0x3c2901f5	0.010315408
117	0x3e575d61	0.21031715
118	0xbba65e5e	-0.0050771674
119	0xbb890ff4	-0.00418281
120	0x3cea58a3	0.028606718
121	0xbc262036	-0.010139516
122	0xbbd3a1de	-0.006458505
123	0x3db8538d	0.09000311
124	0x3dc5262a	0.0962642
125	0xbc9999e1	-0.018750133
126	0x3dc9452d	0.09827647
127	0x3de50ae8	0.11183721

fc3.weight f4 [2, 128]
0	0xbdf03273	-0.117283724
1	0x3d8c5d82	0.06853773
2	0xbd9ae5a8	-0.07563335
3	0xbc153ea3	-0.009109172
4	0x3cbf8de2	0.023383085
5	0x3c084de3	0.008319351
6	0xbb66a1ba	-0.0035191611
7	0x3df5ee34	0.12008324
8	0x3d53319d	0.051560987
9	0xbdb42e22	-0.08797862
10	0xbda9ef31	-0.08297575
11	0xbda7df34	-0.081968695
12	0x3dd9d1d8	0.10635728
13	0xbb014736	-0.0019726283
14	0xbd288964	-0.04114665
15	0xbdc2744d	-0.09494839
16	0x3cd86ce9	0.02641912
17	0x3be274e7	0.0069109085
18	0x3d4883b5	0.04895373
19	0x3d7f9703	0.062399875
20	0x3d8c69f9	0.0685615
21	0xbdbe8859	-0.0930335
22	0x39a6d9ba	0.00031824206
23	0xbe009b06	-0.12559137
24	0xbd4202c7	-0.04736593
25	0xbca2f374	-0.019891478
26	0x3d21c765	0.039496798
27	0xbd569b78	-0.05239436
28	0xbd1f088d	-0.038826514
29	0xbda3c486	-0.07996468
30	0x3caa190b	0.020763895
31	0xbadc10cf	-0.0016789677
32	0x3d8ffc43	0.07030537
33	0xbd9e7946	-0.07737975
34	0x3c32fb37	0.010924152
35	0x3d87c07c	0.0662851
36	0x3d4b84be	0.04968714
37	0xbda8c3b4	-0.082404524
38	0xbdf79017	-0.1208803
39	0x3d5eb70e	0.054373793
40	0xbb8861ab	-0.0041620336
41	0x3d0a43d7	0.033756103
42	0x3d91e2e3	0.07123353
43	0x3d7d5165	0.061845202
44	0xbde94ce7	-0.11391621
45	0x3e362ea3	0.17791228
46	0xbd246e6d	-0.040144373
47	0xbd170cc9	-0.036877427
48	0x3d54bdde	0.051938884
49	0xbc1a6f81	-0.009425999
50	0x3d22b8ab	0.039726894
51	0x3c29542b	0.010335009
52	0x3c9553d3	0.018228447
53	0x3db2a3e1	0.08722664
54	0x3c027f71	0.007964955
55	0xbc9bbf90	-0.019012243
56	0x3dfa0d93	0.1220962
57	0x3da08777	0.07838338
58	0xbd2be9de	-0.04197108
59	0xbd996cff	-0.074914925
60	0xbcee1890	-0.029064447
61	0x3d35f127	0.044419434
62	0x3d1f6bfd	0.038921345
63	0xbcfe056b	-0.031008443
64	0x3d51b909	0.051201854
65	0x3cfc704b	0.030815264
66	0xbd40509b	-0.04695187
67	0xbd20454e	-0.039128594
68	0x3d19a21d	0.03750812
69	0xbd3ef939	-0.046624396
70	0x3e099a24	0.13437706
71	0xbd896ede	-0.06710599
72	0xbd00b882	-0.03142596
73	0xbd825e7a	-0.06365676
74	0xbe359cd6	-0.1773561
75	0xbdbc0e84	-0.09182456
76	0xbbc4c51c	-0.0060049426
77	0x3c4c92f5	0.012486209
78	0x3d49fe16	0.04931458
79	0x3c33b0e2	0.010967465
80	0xbd709f56	-0.058745705
81	0xbd43c52b	-0.047795456
82	0xbd84a6ff	-0.064771645
83	0xbd6b7490	-0.05748421
84	0xbd84c43a	-0.0648274
85	0x3bfb308c	0.0076656993
86	0xbb7bbe3f	-0.0038412956
87	0xbd8ad6fa	-0.06779285
88	0x3d92891e	0.07155059
89	0x3d86fe0c	0.06591424
90	0x3c67aa94	0.01413979
91	0xbd962cb0	-0.07332742
92	0x3e1623e7	0.14662133
93	0x3e054ec0	0.13018322
94	0xbd034a5a	-0.03205333
95	0xbd06f3a9	-0.032947216
96	0x3d83d600	0.06437302
97	0xbd22cfce	-0.03974896
98	0xbd24eeac	-0.040266678
99	0xbbc01904	-0.005862357
100	0x3d7836a9	0.060599003
101	0x3c95a184	0.018265493
102	0x3d7d5aaf	0.06185406
103	0xbd18c0c4	-0.03729321
104	0x3ce4e417	0.027940793
105	0x3d6b60ea	0.05746547
106	0xbd0f0270	-0.034914434
107	0x3d0bd397	0.034137335
108	0x3d1a7ac5	0.03771474
109	0xbd0a1aef	-0.033717092
110	0x3dfa5ca9	0.12224705
111	0xbd590904	-0.052987114
112	0xbd3720b0	-0.044708908
113	0x3d259c6f	0.04043239
114	0x3d0c46e7	0.034247305
115	0x3d747685	0.05968334
116	0xbd62a2d3	-0.055331063
117	0x3e230859	0.15921153
118	0x3c22cbad	0.009936255
119	0xbd0b5845	-0.034019727
120	0xbcf977db	-0.03045266
121	0x3d4b3374	0.049609616
122	0x3d37002a	0.04467789
123	0xbcf31a9b	-0.029675772
124	0xbd01c279	-0.031679604
125	0xbd0a929b	-0.03383122
126	0x3db81f84	0.08990386
127	0x3e4820f4	0.1954382
128	0xbd6d2a5f	-0.057901736
129	0xbc4823ea	-0.012215594
130	0xbd96750f	-0.07346546
131	0xbc4500a7	-0.012024081
132	0x3e0d44cd	0.13795777
133	0xbd8d20f4	-0.06891051
134	0xbb815eaf	-0.0039480547
135	0x3deb8caa	0.11501439
136	0x3cfbff8d	0.030761505
137	0x3c73cfd4	0.014881093
138	0xbd2c5c87	-0.04208043
139	0xbc43b471	-0.011944876
140	0xbdf99c62	-0.12188031
141	0xbcd1560b	-0.025553724
142	0x3d958576	0.07300846
143	0x3d2cdb48	0.04220131
144	0x3d88d8ec	0.066819996
145	0xbd69fbc2	-0.05712486
146	0x3c9a4bce	0.018834975
147	0xbd85054b	-0.0649515
148	0xbd8bc9d3	-0.06825604
149	0xbda8f9ff	-0.08250808
150	0xbd27b9e6	-0.04094877
151	0xbc588653	-0.013215619
152	0x3cf3f327	0.02977903
153	0x3d991896	0.074753925
154	0x3cf45a7e	0.029828306
155	0xbca5af0a	-0.020225067
156	0x3c2ee39d	0.010674384
157	0x3d0a5a19	0.03377733
158	0xbd862cac	-0.06551489
159	0xbe2541fb	-0.16138451
160	0xbe16f881	-0.14743234
161	0xbd569606	-0.052389167
162	0x3afe1ed7	0.0019387853
163	0x3d8bd113	0.06826987
164	0x3d4de23b	0.05026458
165	0xbce17e43	-0.027526027
166	0xbcaa4383	-0.020784145
167	0x3dbb364e	0.09141217
168	0x39a55d0d	0.0003154058
169	0xbd992e8b	-0.074795805
170	0x3b2beda8	0.0026234183
171	0x3e167669	0.14693607
172	0xbc9d3bf3	-0.019193625
173	0x3e163109	0.14667143
174	0x3d6afa8a	0.05736784
175	0xbd23f5af	-0.040029224
176	0x3da26be6	0.07930736
177	0xbd6f2f9a	-0.058395006
178	0xbd750ade	-0.059824817
179	0x3d81e44b	0.063423716
180	0xbc40ff88	-0.011779673
181	0x3dae8383	0.085211776
182	0x3df29353	0.11844506
183	0xbc903e07	-0.017607702
184	0x3dfbad92	0.12288965
185	0xbdc0d661	-0.094158895
186	0x3d813661	0.063092
187	0x3c267a5a	0.010161007
188	0x3d8a1ec5	0.0674415
189	0x3d8094de	0.06278394
190	0x3ccdd930	0.025127977
191	0xbd329f42	-0.04360891
192	0x3d70844c	0.058719918
193	0x3e026308	0.1273309
194	0x3c04598f	0.008077993
195	0x3d2c210b	0.0420237
196	0x3cb44749	0.022006648
197	0xbb5fae25	-0.0034130898
198	0x3d76fcb2	0.060299583
199	0xbc3257e4	-0.010885213
200	0xbd684012	-0.056701727
201	0xbb9096f1	-0.004412525
202	0xbd13cc0d	-0.03608327
203	0xbd8421ce	-0.0645176
204	0xbd9d1728	-0.07670432
205	0x3cb94976	0.022618037
206	0xbdbba381	-0.09162045
207	0xbb3c1c75	-0.0028703485
208	0x3da4c2b3	0.080449484
209	0x3d1da959	0.03849158
210	0x3d29931f	0.04140007
211	0x3ce87df4	0.028380372
212	0x3d8cf05d	0.06881783
213	0xbd7aa546	-0.061192773
214	0x3e0ef839	0.13961877
215	0xbd6cae71	-0.057783548
216	0xbd83c75f	-0.064345114
217	0xbd329420	-0.043598294
218	0x3e0e5b53	0.13902025
219	0x3d31a35d	0.043368686
220	0x3dcd5a4a	0.10026987
221	0x3de25178	0.11050695
222	0xbddc9784	-0.10771087
223	0xbda79ab8	-0.08183807
224	0x3db5e531	0.088816054
225	0xbcf8ff44	-0.030395158
226	0x3ca6b410	0.020349532
227	0xbe178339	-0.14796151
228	0x3da931c8	0.08261448
229	0xbda6f00f	-0.08151256
230	0x3cedeeb5	0.029044488
231	0x3d5fb20c	0.054613158
232	0xbd13f4c5	-0.036122102
233	0x3d8d3778	0.068953454
234	0x3c8b06b1	0.016970964
235	0xbd1fcf58	-0.039016098
236	0xbd1b80cc	-0.037964627
237	0x3d60c08e	0.054871134
238	0xbd25825a	-0.040407516
239	0xbc1ab072	-0.009441482
240	0x3d1e8021	0.038696412
241	0x3ccd1250	0.025033146
242	0xbd65ac34	-0.05607243
243	0x3dfbda68	0.12297517
244	0x3cf50a1e	0.02991205
245	0x3dba86d7	0.0910775
246	0xbd04e1ee	-0.032442026
247	0x3cd83b5c	0.026395492
248	0xbceaee08	-0.028677955
249	0x3d3f938e	0.04677158
250	0x3d2219f4	0.039575532
251	0x3d56bb7c	0.052424893
252	0xbd8c10fa	-0.068391755
253	0x3dbe0014	0.09277359
254	0x3daa8974	0.08326998
255	0x3d6eb0da	0.058274128

fc3.bias f4 [2]
0	0x3c06759c	0.008206751
1	0xbd659623	-0.056051385
